…
The number of users: 19445
Average actions of users: 1.1150424273592183
The number of items: 5549
Average actions of items: 3.907370697422959
The number of inters: 21682
The sparsity of the dataset: 99.97990552482683%
27 Nov 20:02    INFO 

=================================


27 Nov 20:02    INFO =========1/1: Parameters:['n_ui_layers', 'mm_image_weight', 'learning_rate', 'contrastive_temp', 'lambda_contrastive', 'lambda_orthogonal', 'alpha', 'lambda_constraint', 'residual_ratio', 'seed']=(4, 0.1, 0.0001, 0.2, 0.03, 0.001, 0.1, 0.01, 0.1, 999)=======
27 Nov 20:02    INFO SAGF(
  (image_embedding): Embedding(7050, 4096)
  (encoder_v1): Linear(in_features=4096, out_features=256, bias=True)
  (encoder_v2): Linear(in_features=256, out_features=64, bias=False)
  (text_embedding): Embedding(7050, 384)
  (encoder_t1): Linear(in_features=384, out_features=256, bias=True)
  (encoder_t2): Linear(in_features=256, out_features=64, bias=False)
  (visual_projector): Sequential(
    (0): Linear(in_features=64, out_features=32, bias=True)
    (1): ReLU()
    (2): Linear(in_features=32, out_features=16, bias=True)
  )
  (text_projector): Sequential(
    (0): Linear(in_features=64, out_features=32, bias=True)
    (1): ReLU()
    (2): Linear(in_features=32, out_features=16, bias=True)
  )
  (joint_projector): Sequential(
    (0): Linear(in_features=64, out_features=32, bias=True)
    (1): ReLU()
    (2): Linear(in_features=32, out_features=16, bias=True)
  )
  (text_fn): Linear(in_features=384, out_features=64, bias=True)
  (image_fn): Linear(in_features=4096, out_features=64, bias=True)
)
Trainable parameters: 36850607
27 Nov 20:02    INFO epoch 0 training [time: 5.86s, train loss: 35.6878]
27 Nov 20:03    INFO epoch 0 evaluating [time: 6.22s, valid_score: 0.056700]
27 Nov 20:03    INFO valid result: 
recall@5: 0.0225    recall@10: 0.0370    recall@20: 0.0567    recall@50: 0.1048    ndcg@5: 0.0147    ndcg@10: 0.0194    ndcg@20: 0.0244    ndcg@50: 0.0339    precision@5: 0.0047    precision@10: 0.0039    precision@20: 0.0030    precision@50: 0.0022    map@5: 0.0120    map@10: 0.0139    map@20: 0.0152    map@50: 0.0167    
…
