…
The number of users: 39387
Average actions of users: 1.0457511361616778
The number of items: 16803
Average actions of items: 2.451288460393977
The number of inters: 41189
The sparsity of the dataset: 99.99377640221293%
27 Nov 16:54    INFO 

=================================


27 Nov 16:54    INFO =========1/1: Parameters:['n_ui_layers', 'mm_image_weight', 'learning_rate', 'contrastive_temp', 'lambda_contrastive', 'lambda_orthogonal', 'alpha', 'lambda_constraint', 'residual_ratio', 'seed']=(4, 0.1, 0.0001, 0.3, 0.05, 0.003, 0.1, 0.001, 0.5, 999)=======
27 Nov 16:54    INFO SAGF(
  (image_embedding): Embedding(23033, 4096)
  (encoder_v1): Linear(in_features=4096, out_features=256, bias=True)
  (encoder_v2): Linear(in_features=256, out_features=64, bias=False)
  (text_embedding): Embedding(23033, 384)
  (encoder_t1): Linear(in_features=384, out_features=256, bias=True)
  (encoder_t2): Linear(in_features=256, out_features=64, bias=False)
  (visual_projector): Sequential(
    (0): Linear(in_features=64, out_features=32, bias=True)
    (1): ReLU()
    (2): Linear(in_features=32, out_features=16, bias=True)
  )
  (text_projector): Sequential(
    (0): Linear(in_features=64, out_features=32, bias=True)
    (1): ReLU()
    (2): Linear(in_features=32, out_features=16, bias=True)
  )
  (joint_projector): Sequential(
    (0): Linear(in_features=64, out_features=32, bias=True)
    (1): ReLU()
    (2): Linear(in_features=32, out_features=16, bias=True)
  )
  (text_fn): Linear(in_features=384, out_features=64, bias=True)
  (image_fn): Linear(in_features=4096, out_features=64, bias=True)
)
Trainable parameters: 112343137
27 Nov 16:55    INFO epoch 0 training [time: 18.72s, train loss: 59.6727]
27 Nov 16:55    INFO epoch 0 evaluating [time: 15.15s, valid_score: 0.046500]
27 Nov 16:55    INFO valid result: 
recall@5: 0.0180    recall@10: 0.0290    recall@20: 0.0465    recall@50: 0.0811    ndcg@5: 0.0117    ndcg@10: 0.0153    ndcg@20: 0.0197    ndcg@50: 0.0265    precision@5: 0.0037    precision@10: 0.0029    precision@20: 0.0024    precision@50: 0.0016    map@5: 0.0096    map@10: 0.0111    map@20: 0.0123    map@50: 0.0133    
…
