…
Average actions of users: 1.1244732850160122
The number of items: 13738
Average actions of items: 2.9137429028970736
The number of inters: 40029
The sparsity of the dataset: 99.99181486908563%
01 Dec 16:36    INFO 

=================================


01 Dec 16:36    INFO =========1/1: Parameters:['decay_weight', 'decay_base', 'n_ui_layers', 'mm_image_weight', 'learning_rate', 'contrastive_temp', 'lambda_contrastive', 'lambda_orthogonal', 'alpha', 'lambda_constraint', 'residual_ratio', 'seed']=(0.95, 0.9, 4, 0.1, 0.0001, 0.2, 0.05, 0.003, 0.1, 0.001, 0.5, 999)=======
01 Dec 16:37    INFO SAGF(
  (image_embedding): Embedding(18357, 4096)
  (encoder_v1): Linear(in_features=4096, out_features=256, bias=True)
  (encoder_v2): Linear(in_features=256, out_features=64, bias=False)
  (text_embedding): Embedding(18357, 384)
  (encoder_t1): Linear(in_features=384, out_features=256, bias=True)
  (encoder_t2): Linear(in_features=256, out_features=64, bias=False)
  (s_MLP): Linear(in_features=4480, out_features=256, bias=True)
  (s_MLP_1): Linear(in_features=256, out_features=64, bias=False)
  (visual_projector): Sequential(
    (0): Linear(in_features=64, out_features=32, bias=True)
    (1): ReLU()
    (2): Linear(in_features=32, out_features=16, bias=True)
  )
  (text_projector): Sequential(
    (0): Linear(in_features=64, out_features=32, bias=True)
    (1): ReLU()
    (2): Linear(in_features=32, out_features=16, bias=True)
  )
  (joint_projector): Sequential(
    (0): Linear(in_features=64, out_features=32, bias=True)
    (1): ReLU()
    (2): Linear(in_features=32, out_features=16, bias=True)
  )
  (text_fn): Linear(in_features=384, out_features=64, bias=True)
  (image_fn): Linear(in_features=4096, out_features=64, bias=True)
)
Trainable parameters: 91929287
01 Dec 16:37    INFO epoch 0 training [time: 7.35s, train loss: 65.7051]
01 Dec 16:37    INFO epoch 0 evaluating [time: 6.03s, valid_score: 0.063800]
01 Dec 16:37    INFO valid result: 
recall@5: 0.0243    recall@10: 0.0397    recall@20: 0.0638    recall@50: 0.1128    ndcg@5: 0.0160    ndcg@10: 0.0210    ndcg@20: 0.0271    ndcg@50: 0.0369    precision@5: 0.0051    precision@10: 0.0042    precision@20: 0.0034    precision@50: 0.0024    map@5: 0.0131    map@10: 0.0151    map@20: 0.0168    map@50: 0.0183    
…
